checkpoint_dqn.pth (torch_old, 54529 bytes, 6 tensors)

fc1.weight f4 [128, 37]
00000000: d58d 493e 3d63 2bbe f449 82be 593c babe
00000010: 49c1 79bf 121e e53d fb9e 5abe 2a5b 96bd
00000020: ec1a 0d3e ef25 a7be 9bac 303e 6872 3dbf
00000030: c972 a9be a836 dfbe 39e7 48bf 6690 d63c
00000040: 46ba edbc edbc e93b cd0f 743e 6dff 8abe
00000050: 4a7a 3a3e 43fa ab3b 4972 72bd 519a 01bf
00000060: dc37 d3bc 4069 63bc 4406 c73d e334 56be
00000070: 68a0 c5bd 036c 03be fe84 12be 50a5 b7bd
00000080: 8f1c 9ebe 33cc 9f3e 4cd5 eebe 361e 33bd
00000090: d2d4 ee3c e8d5 f33e 1ca5 20bf 9510 26bf
000000a0: e997 0dbf 4485 2fc0 338c 2dbe fb4b 24bd
000000b0: 0290 043d f0c0 613d eb54 3d3e c726 ae3d
000000c0: 90c0 f03d 9651 d73d d06a e1bb 1947 d7bd
000000d0: 0847 423d c7db 4c3e 0c88 ce3b 0fb8 593e
000000e0: b011 033e 9369 f3bd 93db abbc 23d4 263c
000000f0: e4d1 4f3d 63c0 453d ff26 d3ba 40d4 b83d
00000100: 360e 0f3e 682b 483d c662 123e 5b26 2a3e
00000110: 89ea 103e 34db fe3d 28ba a33c 89ea 21be
00000120: 74a3 e2bb 1d45 9a3a 7430 f03d 7677 663d
00000130: 1deb 04be d489 dcbe 351d c9be ab48 59bf
00000140: 5608 06be 89d9 8b3e ca87 9cbe cea8 023d
00000150: 725a 943d 1627 76bf 580f 143d 431d b1be
00000160: 4565 f03e b020 2dbf dd35 9e3d a1c1 0bbf
00000170: c708 ee3d c0ce 53be 9297 a7be fa7c 2fbe
00000180: 1ea8 07bd 2c5a 6bbe 3fe5 9abc 7f9a 48bf
00000190: 0183 843e fe18 cdbd 6f09 a8be a914 b03e
000001a0: eee7 0ebf b565 45be f219 093d fc28 26bf
000001b0: 062b 093d 0bbe 8dbc f249 03ba ba7c 9a3b
000001c0: 13bc 49be 38c1 943e b63a 09bf e3bf 25bf
000001d0: dae9 82be 11a9 81bd 76d5 fbbd ebc3 aebe
000001e0: 20a5 f9bd e6e0 fbbe 9458 cabd 0d80 dcbc
000001f0: 035f bb3d 6662 52bf 3623 94be 0bf2 1abe
00000200: 06a9 0cbf d0f2 3c3e 5c8c 19bd ee23 03bf
00000210: 6eb0 043e 0b30 afbe 4bf5 e6be 477b 94be
00000220: a2b5 eabd ee13 a0be 43c2 c83d 7355 5d3e
00000230: 3f78 e13d f2fe 04bf 8389 963e 63b5 8dbe
00000240: c955 0fbe 5617 a9bd 2189 a63d 1113 f03c
00000250: 2a35 a5be ee38 b6be 416a 27be 1681 85bf
00000260: ddbc 51bf 1f4b 99be 099b 4cbe 8a9e 943d
00000270: 4a4e 3dbf 8686 e5bf a1e9 2cbd e0d9 a5be
00000280: 700e 49bf 3bcd dabe 2cbe e2be cea5 0ebf
00000290: 2a35 4fbe fef9 0f3d 425d d6be e2e5 a0bf
000002a0: b437 f0be ebdd 5dbe 7957 e03c 57b2 15bf
000002b0: ab7a 6dbe 0e82 eebe 5e5d 44bf 43a0 9b3e
000002c0: dd05 09bf cbe6 13c0 d6c7 423e 7bda b6be
000002d0: 38d5 05bf b8d0 04bf 0db0 1c3e 2756 243d
000002e0: ac88 183d d1c2 7e3d 951d 20bf 9d11 883d
000002f0: 5410 bdbd 1fcb d93e 02a4 66be 43f7 8d3e
00000300: d373 813d 3d99 6d3b b7d2 81bf e045 95be
00000310: ce61 3cbe 4068 983d 63dc ecbe 3eb0 6b3e
00000320: 727a 89bb 1294 02be 0dd4 0abf e89a 26be
00000330: 9e15 93bd 0b08 8fbe 6677 08be b8f2 9a3e
00000340: 2049 b7be 0b88 68be 220c 1f3e c7ef 4fbe
00000350: 488d d5be 11fd 81be 6042 3ebd 2a41 693e
00000360: 4519 18bf 71d5 1dbe 47f3 79be 7474 4fbf
00000370: fe9e 8fbd 0af3 703c faa9 a83e 0610 f73d
00000380: 8a85 74bd 5b76 7cbe 3c20 a9be 4197 abbd
00000390: 5019 3bbd 3cdf f23d 6d10 123e aa96 15be
000003a0: 5fc9 433e ced6 d03a 7206 ae3d 4f18 533e
000003b0: eded a63e 9a5c a1be efd0 183e b00c 3a3d
000003c0: 95e8 ea3e 9071 333d 3509 1c3e 3ce0 63be
000003d0: 5d6f 46be c255 683d d145 4abe 7c20 f73c
000003e0: 62f6 8abe e118 123e 9c00 c6be 767c d03e
000003f0: 75dd 73bc f5de 513e 8d5f 8ebe 96de 883e
0.19683011 -0.16737075 -0.25447047 -0.36374167 -0.97560555 0.11187376 -0.21349709 -0.07341607
0.13779801 -0.3264613 0.17253344 -0.74002695 -0.33095387 -0.43596387 -0.7847782 0.026191901
-0.029019486 0.0071331174 0.23834153 -0.27148 0.18210712 0.0052483394 -0.059191022 -0.50626093
-0.025783472 -0.013880074 0.09717992 -0.20918612 -0.09649736 -0.12834172 -0.14308545 -0.08967078
-0.30881163 0.3121048 -0.46647108 -0.043729983 0.029154215 0.47624135 -0.62751937 -0.6486905
-0.5530992 -2.742509 -0.16948013 -0.040111523 0.0323639 0.05511564 0.18489425 0.0850349
0.117554784 0.10513608 -0.006879188 -0.10511608 0.047431022 0.20005713 0.006302839 0.21261619
0.12799716 -0.11885371 -0.020978725 0.010182413 0.050737277 0.048279177 -0.0016109644 0.090248585
0.13970265 0.04886952 0.14295492 0.16616194 0.14151968 0.124441534 0.019986227 -0.15812124
-0.006916458 0.0011769865 0.11727992 0.05626627 -0.12980314 -0.43073905 -0.39280096 -0.8487651
-0.13089117 0.27314404 -0.3057235 0.031899266 0.072438136 -0.9615339 0.036147445 -0.34592637
0.46952263 -0.67628 0.07725117 -0.5459233 0.11622768 -0.20684338 -0.32732826 -0.17137519
-0.033119313 -0.22983617 -0.018908141 -0.7836074 0.25881198 -0.100145325 -0.32819697 0.34390762
-0.55822647 -0.1927708 0.03347201 -0.6490629 0.033488296 -0.017302534 -0.0005008272 0.0047145756
-0.19700651 0.29053664 -0.5360521 -0.6474592 -0.2556904 -0.06331075 -0.12296574 -0.3413385
-0.12189698 -0.4919502 -0.09880176 -0.026916528 0.091489814 -0.82181394 -0.28933114 -0.15131395
-0.5494541 0.18452 -0.037487373 -0.512267 0.12957928 -0.3421634 -0.4510902 -0.29000303
-0.11460425 -0.31265205 0.098026775 0.21614628 0.11009263 -0.51951516 0.29401788 -0.2767745
-0.13997568 -0.08256404 0.08131624 0.029305967 -0.32267123 -0.3559031 -0.16349126 -1.0430019
-0.8192881 -0.29940125 -0.19981016 0.072568014 -0.73947585 -1.7931678 -0.042214993 -0.32392788
-0.78537655 -0.42734703 -0.44285715 -0.5572175 -0.20235124 0.03515052 -0.41868025 -1.2570155
-0.46917498 -0.21666686 0.02738546 -0.5847525 -0.23191325 -0.465836 -0.7670497 0.30395707
-0.5352457 -2.3109615 0.19021544 -0.35713562 -0.5227847 -0.5188098 0.15301533 0.040121224
0.037239715 0.06219751 -0.6254514 0.066439845 -0.0923163 0.42537782 -0.22523502 0.27727708
0.0632092 0.0036254667 -1.014243 -0.29154873 -0.18396685 0.07441759 -0.46261892 0.2301645
-0.004195505 -0.12751797 -0.54229814 -0.1627003 -0.071818575 -0.27935824 -0.13326797 0.30263305
-0.35797977 -0.22708146 0.15531972 -0.20306312 -0.41709352 -0.25388387 -0.04645002 0.22778764
-0.5941356 -0.15413453 -0.24409209 -0.8103707 -0.07012747 0.0147063825 0.32942182 0.12063603
-0.059697665 -0.24654524 -0.33032405 -0.08378459 -0.045678437 0.11858985 0.14264078 -0.14608255
0.19119786 0.0015933157 0.08497323 0.20614742 0.32603398 -0.31515962 0.14923452 0.045422256
0.4588057 0.043809474 0.15237887 -0.22253507 -0.19378419 0.05672241 -0.19753195 0.030166857
-0.271411 0.14267303 -0.3867234 0.40719956 -0.014884342 0.20495208 -0.27807274 0.2673232

fc1.bias f4 [128]
00000000: 916f 08be 8546 7c3d 3b98 23be 4ff5 3cbd
00000010: 7189 9abd 2213 37be a803 7cbd 45f5 863d
00000020: a792 cf3d f864 10be 2e25 8ebe 58e7 17be
00000030: 90bf 68be 09b0 80bd 6965 60be 5f31 42be
00000040: 498f 2abd 00f1 86be 7b6e b4bd 487d 63be
00000050: 0f60 f4bd 0bbe 80bc 0fa4 643e 1feb fabd
00000060: 2dc9 86be 711e a63c fa5a f1bc f8d4 11bd
00000070: a254 66be 457c 73be 7234 8a3c f8b6 7d3d
00000080: 8b95 64be 39de c9bd 0a2e debd b04f 37be
00000090: 8e00 463c a6b2 1cbd 1870 403c 8d2b c9bd
000000a0: 7ca8 1abe af80 1bbe 9087 d53d ad2c 3bbe
000000b0: cc75 a83c 0d10 05be 543e a9bd 34f0 fdbc
000000c0: e075 e1bd 090d 783c 2317 bebd 4bb0 373e
000000d0: 01b9 f4bd 6d21 8d3d f2d7 67bd ff66 5e3c
000000e0: 5618 29be adf7 f8bd 57b2 f5bd 0152 f2bd
000000f0: 7032 543d f27e a63d a6e2 7b3d 1dcd f9bd
00000100: 6b17 483e 27b0 f3bd 85e9 5a3d 52f3 25be
00000110: 9f37 36be 85e1 37be be7a f8bd 9f7a dabd
00000120: 5836 15be ebbd 2abe 9500 40be 01cb ccbc
00000130: 31e7 203e 5099 44bd f017 b63d 9f17 3abd
00000140: ac7d 7fbd 901c e7bd c815 02be 1e9e 073d
00000150: 4fd0 59be 4efe 533e af20 563d 4ad8 24be
00000160: 9de0 f03c faaf bebd e714 773c 817f c7bd
00000170: 6b45 3cbe 32d7 48be dfee f3bd 0665 1e3e
00000180: 6dd1 24be 6d70 33be 54cb 4bbd dab3 3e3d
00000190: 1cb1 17be 1992 74be f2f1 443d 36cb 4d3e
000001a0: aba0 17be 192c 79be 9943 34be 2150 16be
000001b0: 06d7 28be ca51 78bd 5d22 ea3e dc3d 1ebd
000001c0: 279d f2bb e86e b3bc decb b4bd 6b88 843d
000001d0: 8027 29bd 9191 e13e 057e 8d3c faa0 2dbe
000001e0: ed5d f0bd 67ad e4bd fec9 40be fed1 3ebe
000001f0: 52af cd3d 1224 6abd 50a9 533d b37d 1dbe
-0.13323809 0.06159069 -0.1597604 -0.046132382 -0.07545746 -0.17878392 -0.061526924 0.0658975
0.101353936 -0.14101017 -0.2776274 -0.14834344 -0.22729325 -0.06283576 -0.21913685 -0.18964146
-0.041640554 -0.26355743 -0.08810135 -0.2221576 -0.11932384 -0.01571562 0.22328208 -0.12251877
-0.2632536 0.020278187 -0.029462326 -0.035603493 -0.22493222 -0.23777874 0.016870711 0.06194207
-0.22322671 -0.09856839 -0.10848625 -0.17901492 0.012085093 -0.03825631 0.011745475 -0.0982276
-0.15103334 -0.15185808 0.10426247 -0.18278761 0.020563982 -0.12994404 -0.08263841 -0.030998327
-0.11008811 0.015139827 -0.09281757 0.17938344 -0.11949349 0.06891141 -0.056602426 0.013574361
-0.1651319 -0.121566154 -0.11996906 -0.11832047 0.051805913 0.08129682 0.061495446 -0.121973254
0.19540183 -0.11898833 0.053445358 -0.162061 -0.17794655 -0.17957123 -0.12132786 -0.10667919
-0.14571512 -0.1667401 -0.18750222 -0.024999144 0.15713193 -0.047997773 0.088912845 -0.045432683
-0.06237571 -0.11284745 -0.12703621 0.033109777 -0.2127087 0.20702478 0.052277263 -0.16098133
0.029403979 -0.093109086 0.015080667 -0.09741116 -0.18385856 -0.1961334 -0.119107954 0.15468225
-0.16095515 -0.17523356 -0.049754456 0.04655824 -0.14813656 -0.23883857 0.0480823 0.2009705
-0.14807384 -0.24333228 -0.17603911 -0.14679004 -0.16488275 -0.060624875 0.45729342 -0.038633212
-0.007403988 -0.02190347 -0.08827947 0.06471332 -0.041297436 0.4405637 0.017272005 -0.16955939
-0.11736665 -0.11165886 -0.18827054 -0.18634793 0.10043205 -0.057163306 0.05167514 -0.15379982

fc2.weight f4 [64, 128]
00000000: a9ed d03d e8d1 99be 0a54 eebd c1ab 5fbd
00000010: 359f 83be 4540 9e3e 8aba 8cbd 6c0f afbe
00000020: e995 9d3e e5e5 2b3e 1858 f0bd 9750 493d
00000030: e4f0 293e acec 023c 5413 143e 15ca 53be
00000040: 2c3a 3b3e 295b 433e 93ff 403d 88c0 d5bd
00000050: 7523 f53c 74c9 e9bc cb55 803d 2ee5 4cbd
00000060: 8d6b 873d 2674 eb3e 0949 61bd 9c18 aabe
00000070: 58bc 01be c7a1 ee3e b889 2a3e 926f 613d
00000080: 047f 2abe 92df 67bc b8b9 c03d 8910 04bf
00000090: 7664 3f3e 7a25 8abd dfe3 8e3e 2e0f b1be
000000a0: 75f8 21be c77b ff3c 7fb1 863d 304f 943d
000000b0: bf3d 323d 4b9a 1fbc 672f 10be 1961 efbe
000000c0: a336 fdbd dbcc b13c c52b 09bd 35b6 8ebe
000000d0: 1ff1 aa3e 7b2c 7dbf d610 40be 7009 8dbe
000000e0: 7e2b 69be c149 8ebd ff7d 97be 0f65 633e
000000f0: ba6a 82be 4d5f af3b a023 503c 8408 363e
00000100: a767 d9bd 98fd 4a3e 057d 923d b509 70bd
00000110: 2c98 98bd 05ef fdbb a1d0 71be 8e87 1c3f
00000120: 8c81 bf3c 8f0e 523c 751d 00be 60ff 5abf
00000130: 5a3a 843c 2aed 69be 6336 d8bd c360 d03d
00000140: 6756 823d db0b 4b3e 0482 063e e399 32bd
00000150: 612f 1a3d 5a51 453e a030 6d3d b582 593d
00000160: 16cb 65bd 6e22 6d3d 55a3 833d 7c87 aebd
00000170: 485b 8c3d 8351 473d f3f0 d1bd f344 d83e
00000180: 87c5 dfbd 20a7 af3d 7fc3 0bbd 72a0 323e
00000190: 4b41 803e 6bd4 4ebd 1b54 47be 878a 0a3e
000001a0: f698 803d db29 89be 937c da3e 9433 143e
000001b0: bd57 d6be 7f91 7a3e b244 22be a763 fd3d
000001c0: 9d0e 81be 7123 043f 84ab 5bba 400b 15bd
000001d0: c8ae 413e b13d a13d b59b 793e d1a3 a8bd
000001e0: f8bc 033d 2c4a d3be d58c c13d 1b36 23bd
000001f0: f76c d43e 3883 32be ffa8 0f3c 663f b93e
00000200: c513 c43d 4b04 6dbf 17ef 8fbf 6d75 b33c
00000210: c701 82be 7026 a2bf a551 a23e f861 5abf
00000220: 20bc 103e f85f a73d 7b4a 093d 1956 ebbe
00000230: 4367 28bc 9be6 ab3d 9b28 a5be aabf 11be
00000240: c6e3 eebd 6d75 27bf a759 b2be 9623 253d
00000250: 0039 ddbb 0d21 97be 68b1 dc3d 710c f3be
00000260: 7d29 a83b f786 27be 871e 453d 9194 32bd
00000270: 40ea b63d 4c80 64bf 0d74 9dbb a7f5 89bf
00000280: 9887 82bf ebc4 28bf e407 c3bd a9a6 32be
00000290: fbce 583d f09a 44bf 217c 943d 1092 9ebf
000002a0: 28f9 d63e 7941 103f 0a9e 173e 4627 61be
000002b0: 2dbb 1abe 0afc 90bf e22f c9be e57a fcbe
000002c0: 4de1 10bf 407b 4bbf f5dc 2bbd 645a 38bf
000002d0: b949 0dbe eeea 0dbf abd5 8abe eaaa 52be
000002e0: 5143 d2bd 74d5 6bbe eb2f eabe 6300 953e
000002f0: d1ee fcbe f574 8fbe 7f8f 85be f895 113e
00000300: 31b0 8a3e c934 063e 5462 96bd ca72 b2bd
00000310: d50d 29be b77c abbd 51c2 d23d 0926 85bc
00000320: a739 64be 8f27 58be 2af5 7dbe 434b 06be
00000330: 38c4 48bf a69f 1c3e f547 f2be 4dbb 8cbe
00000340: 91ed 7cbf c280 0e3e a795 90bf edf6 c63e
00000350: c2e8 32bf 26c7 77be 21dd fcbe 8754 5abf
00000360: 7b1f 12bf c9a4 803e 0c91 fcbe 8e0f 43bf
00000370: 996f efbe 2b9c 8cbe d0b3 91bd cc91 e33e
00000380: 3a02 1ebe fcb9 4ebf 9f1b 2dbf c4f3 05bf
00000390: 5059 903e 86ef 00bf ea20 cebe 79dc cc3e
000003a0: 303b e3bd abed 1abe 4968 ba3e 0ff0 02bf
000003b0: f33a 073f 63c9 5bbf e683 91bd f95d 1abf
000003c0: 4a37 0bbc 567d 533e 9701 6cbf b526 91be
000003d0: 2725 cebe b9b0 c43d a93b b1be 164d 0ebe
000003e0: f644 bdbe 5d0a b93d 8def 19bf bd29 3dbe
000003f0: 310e 7ebe 59b3 bb3e d604 3cbd 3e0c 4c3e
0.1020158 -0.30042958 -0.11637123 -0.054607157 -0.25707403 0.3090841 -0.06871517 -0.34191453
0.30778435 0.16786917 -0.117355525 0.049149122 0.16595799 0.007990997 0.14460498 -0.20682557
0.1828391 0.19077744 0.047118735 -0.10437113 0.029924134 -0.028538443 0.06266364 -0.05002325
0.066123106 0.45987052 -0.055001292 -0.332219 -0.12669504 0.466078 0.16654098 0.055038042
-0.16650015 -0.014152424 0.09410423 -0.5158773 0.18690667 -0.06745429 0.27908227 -0.34581894
-0.15817435 0.031186951 0.065768234 0.07241666 0.043515917 -0.009741376 -0.14080583 -0.46753767
-0.12363937 0.021704128 -0.033489008 -0.27873388 0.33387086 -0.98895997 -0.18756422 -0.27546263
-0.22770497 -0.06947661 -0.29588315 0.2220652 -0.2547205 0.005351937 0.012703806 0.17776686
-0.10615473 0.19823301 0.07152752 -0.058603007 -0.074508995 -0.0077494406 -0.23614742 0.6114434
0.023377202 0.012820854 -0.12511237 -0.8554592 0.016141105 -0.22844377 -0.105572484 0.10174706
0.06364136 0.19828741 0.13135535 -0.04360379 0.03764284 0.19269314 0.0579077 0.053103168
-0.05610188 0.057894163 0.064276375 -0.08521935 0.06853348 0.04866172 -0.102510355 0.42240104
-0.10926347 0.085767984 -0.034121986 0.17444018 0.25049815 -0.050495546 -0.19465677 0.13529406
0.06279175 -0.26789746 0.42673168 0.144728 -0.41863814 0.24469565 -0.15846518 0.12372523
-0.25206462 0.5161658 -0.0008379745 -0.036387682 0.1891433 0.07873095 0.24375804 -0.082343705
0.032162637 -0.41267526 0.0945069 -0.03984652 0.41489384 -0.17432868 0.008768319 0.36181182
0.09574083 -0.92584676 -1.124484 0.021906579 -0.2539198 -1.266798 0.31702915 -0.8530574
0.14134264 0.081726015 0.033518296 -0.45964125 -0.010278526 0.08393594 -0.32257542 -0.1423327
-0.11664538 -0.6541355 -0.34834024 0.04031714 -0.0067511797 -0.29517403 0.10776025 -0.4747043
0.005131899 -0.16360079 0.048124816 -0.043598715 0.089313984 -0.89258265 -0.004805094 -1.0778092
-1.019763 -0.6592547 -0.095229894 -0.17446388 0.052931767 -0.76798916 0.07250238 -1.2388325
0.41986966 0.56349903 0.14806381 -0.21987638 -0.15110464 -1.1326916 -0.39294344 -0.4931251
-0.5659378 -0.7948494 -0.041958768 -0.72012925 -0.13797654 -0.554366 -0.2711614 -0.20573011
-0.10266746 -0.23030645 -0.45739684 0.29101858 -0.49400952 -0.2801892 -0.2608604 0.14217365
0.27087548 0.13106073 -0.07342973 -0.087133005 -0.16509183 -0.08373397 0.10290969 -0.016253488
-0.22287618 -0.2110884 -0.24800554 -0.13114648 -0.78424406 0.15295276 -0.47320524 -0.2748665
-0.988 0.13916305 -1.129567 0.38860264 -0.6988641 -0.24197063 -0.49387458 -0.8528523
-0.57079285 0.2512572 -0.49329412 -0.7619561 -0.4676483 -0.27462897 -0.07114375 0.44447172
-0.15430537 -0.8075254 -0.6762027 -0.5232508 0.2819314 -0.50365484 -0.40259486 0.40011957
-0.110952735 -0.15129726 0.36407688 -0.5114755 0.52824324 -0.85854167 -0.07105236 -0.6029964
-0.008497069 0.2065328 -0.92189926 -0.28349844 -0.4026272 0.0960402 -0.3461583 -0.13896593
-0.36966676 0.0903518 -0.6013115 -0.18472953 -0.24810101 0.3666027 -0.04590305 0.19926545

fc2.bias f4 [64]
00000000: f5c4 4c3d 329c 14be 380d 463f 9b53 3c3e
00000010: 6b8b 0d3f 0df6 79be dc36 e0bc 9dd4 86bd
00000020: b09e 97be 7467 07be ed71 4e3d 320e 5c3e
00000030: 42db d0bd e0d4 eb3d 3324 2e3f b396 0abd
00000040: e009 92bc acbe 32bd 60d1 f8bd 374b 38bc
00000050: 6f15 d93d 0e9b ba3b bcc3 033e 1f36 023e
00000060: f2a8 e8bd c7ac 44be b1a0 5f3f 1352 313e
00000070: 5d79 eabd 6e0a dbbd 288f 06bd 6ec1 f03e
00000080: 00c6 ebbd 425f e93d 434f a4bd be6c 24be
00000090: 5500 bbbd 5672 303e db61 a5bd 333a cd3e
000000a0: f1de 133c 9df3 06bd fcd5 183d 03f7 523e
000000b0: 5383 8a3e 620b 4cbe 90f5 71bd 1059 0dbe
000000c0: e706 193f 4d46 783c f0a8 a2be 0fce 11be
000000d0: 0df7 8dbe c598 8c3e fd6a 60bd 8db6 2f3f
000000e0: 6f6e 863c 9ad6 993e e302 5f3f 5212 343e
000000f0: 244f a73e d7a9 26be 7e6f c6bd 9f23 57bc
0.04999252 -0.14512709 0.7736392 0.18391268 0.5529086 -0.24410267 -0.027369909 -0.065835215
-0.29613256 -0.13223058 0.050401617 0.2148979 -0.1019807 0.11515212 0.68023986 -0.033835124
-0.017826974 -0.04363887 -0.1214931 -0.011248401 0.10599791 0.0056947535 0.12867635 0.12715958
-0.11360349 -0.19206534 0.8735457 0.17316465 -0.114489295 -0.10695349 -0.03285137 0.47022575
-0.11512375 0.11395122 -0.080229305 -0.16057107 -0.09130923 0.17231116 -0.08075305 0.40083465
0.009025321 -0.03294717 0.037313446 0.2060204 0.27053317 -0.19926217 -0.059072077 -0.13803506
0.5977616 0.01515348 -0.31769514 -0.14238761 -0.27727547 0.27460304 -0.054789532 0.68637925
0.01641008 0.3004654 0.8711378 0.17585114 0.32677567 -0.16275726 -0.09689234 -0.013131051

fc3.weight f4 [4, 64]
00000000: 2f18 103e 858a ccbe d0b3 7f3e 14d1 383e
00000010: b4e0 4e3e e074 ebbd 5f36 233e a95d 5bbe
00000020: e234 f5bd 9397 e13d c57f 393e 7c5f ca3d
00000030: a32d b83e dafb eb3d 96a9 613e ae2b 443d
00000040: b6a3 5ebe 37f2 773e 86e8 8c3c 6d01 bb3e
00000050: 66f8 863e b62b dc3e b0e1 903e 68f8 813e
00000060: 2960 b33c 4920 72be 3144 813e e780 643e
00000070: ba32 7cbd 07c6 90be c37b 053d 701f 193e
00000080: 51f0 7cbe a104 773e db11 1fbc a96e 303e
00000090: 9fed d13d fbec 9f3e cdf2 83bf 52d5 be3d
000000a0: 5f7f bcbd ebf2 f2bc 24ae 813e 33f7 603d
000000b0: 3dad e13c 1eca 1abf 9bcc 8bbe 1329 48bf
000000c0: 3564 743e 7360 8d3e 6a19 75be d1e3 1ebf
000000d0: 497a 88be 3ce6 5a3e 9195 de3d a302 353e
000000e0: 455d 20be 0761 f43d 3995 873e c133 253e
000000f0: 9e10 373e 55d4 36be 3196 abbc aefb a53e
00000100: 63b4 053e f07b dcbd 8200 393e 6b09 0d3e
00000110: 19e6 5a3e 8c90 e8bc e47a 2bbe 78ae 4cbe
00000120: 2571 5abd ed90 863d 8866 363e 5720 e13d
00000130: ebcb 1abe bd11 9f3d f3e5 1b3e 87c6 a0be
00000140: 099b 313d 9940 853e f111 db3d 8c00 c43e
00000150: 360d 993e 8bc3 d43e 27ff ab3e f421 733e
00000160: 3ed9 06be a1d7 81bd 0781 a63e 8538 823e
00000170: ca85 63bd fb48 8abe a148 913d 0e62 043e
00000180: 0033 b53c 6ef0 213e 16aa 8abe 9b81 2dbc
00000190: 2db3 c93d 2c4d ae3e 0be8 413d 2dc9 e63d
000001a0: 4b85 bb3d 218f 58be 5dd3 d43e 9e88 583d
000001b0: b4ac f33d 44fa 8cbe 56a0 35be 81fe 063e
000001c0: d36f 7f3e 4d8a 583d 45b5 b9bd 5ca6 9c3e
000001d0: dc27 a0be 2a3e 3d3e e62a 6d3e 23e4 5e3e
000001e0: d1a8 f83d 6c56 103e c49d 853e 066a 6d3d
000001f0: 5444 413e 7286 d7bd fc57 ec3b 2daa c33e
00000200: 5d96 c93e dfdc eabe 5126 263e a4e4 633e
00000210: 5790 773e 4c85 103e 4406 d7be aea3 393e
00000220: 2c19 1bbe 1150 19bf 8edc 59bf d61b b63d
00000230: e1a8 c5be 4ff5 923e a258 973e 2e1a 4cbd
00000240: 75f5 33bf f0be 123e 488f 7a3d 7af5 763e
00000250: 56d1 323e 705d bd3e 7310 803d 18e7 1b3e
00000260: ba31 a6be 7bc2 bbbd 19ed 843e dced 593e
00000270: 8a9e 303e 7928 e1be 359a 35bb c957 093c
00000280: df24 323e 651f a63e 36ee 84be 6608 07bf
00000290: 6b0f 153e 93a6 a33e 75fc 9e3d b3fb 1b3e
000002a0: 5e9c 753d 1387 a2be 340f bfbe 9976 a73d
000002b0: 5510 b73c 597c a5be 3e4b 0ebf 9c4d 9ebd
000002c0: 524a f53d d726 16bf c60b 28be 21ff 703e
000002d0: 9fab 9ebe d6a1 253e 7cb2 da3d 823d 633e
000002e0: f480 493e 9027 e93d 1de0 8e3e 3f8f 413e
000002f0: 6466 5bbd c2d7 8dbe 31db 993e 9bd6 b8bd
00000300: 1b44 cf3c 3bc0 15be 38ae 753e 5d28 3c3e
00000310: c9be 443e 2ef8 3a3e 3118 03bf 244c 3cbe
00000320: f574 a2be 2f41 2abd 4c02 a2be 8211 8f3d
00000330: c819 eebe f9b4 913e e9c2 633e 88ad d4bc
00000340: b12c da3b 41b0 883e 904c 00bd 9cc9 a93e
00000350: 6d64 243e 1441 ba3e d41d 3f3e 8245 513e
00000360: 14cb eebd 5b0c 21be 87ea 8a3e 5480 513e
00000370: cbf4 8a3d 083e 173e c125 bbbe 16d9 3a3e
00000380: e16b a7be 351d 493e 2320 febe 7437 22bf
00000390: 6235 093c a24a 20bd ea1b 1abf 8d5b c53d
000003a0: 87b6 d53e ed6d 86be 01b3 af3e ff86 2cbe
000003b0: b29c 923e 94d9 d03e 2136 b93e ee77 6dbe
000003c0: b346 dc3d 17ee b73e 59b4 b2bb 0f87 8b3e
000003d0: d2e0 62be ce14 2b3e 8769 8a3e 6138 803e
000003e0: a3b4 763e 8f58 023e 869d 5d3e b71e 0abf
000003f0: 8650 013e f1b4 49bd ab16 8bbe 9720 0c3f
0.14071725 -0.39949432 0.24970937 0.18048507 0.20202905 -0.114969015 0.1593871 -0.21422447
-0.11972977 0.110152386 0.18115146 0.098814934 0.35972318 0.11522646 0.22037348 0.04789322
-0.21742138 0.24213491 0.01720072 0.36524525 0.26361388 0.430021 0.28297186 0.2538483
0.021896439 -0.23645128 0.25247338 0.22314797 -0.061571814 -0.28276083 0.03258873 0.14953399
-0.24701048 0.2412286 -0.009708847 0.17229713 0.10250401 0.3123549 -1.0308472 0.09318031
-0.092039816 -0.029656848 0.2532817 0.054923248 0.027548427 -0.60464656 -0.2730454 -0.78187674
0.23866351 0.27612647 -0.23935476 -0.6206637 -0.26655796 0.2137689 0.10868371 0.17676787
-0.1566058 0.11932569 0.26481035 0.16133024 0.17877433 -0.17854436 -0.02094564 0.3241858
0.13057093 -0.10765827 0.180666 0.13773124 0.21376838 -0.028389238 -0.16746098 -0.1998843
-0.05333056 0.06570611 0.1781255 0.109924965 -0.15116851 0.07767055 0.15224437 -0.31401464
0.043360744 0.26025847 0.106967814 0.38281667 0.29892892 0.41555437 0.33593103 0.23743421
-0.13168809 -0.06339956 0.32520315 0.25433746 -0.055547513 -0.27008805 0.07093931 0.1292803
0.022119045 0.15814373 -0.2708289 -0.010589982 0.09848628 0.34043252 0.047340434 0.1126884
0.09156283 -0.2114835 0.41567507 0.052864663 0.11898175 -0.27534688 -0.17736945 0.13183023
0.24945001 0.05286627 -0.090677775 0.30595672 -0.3128041 0.18480745 0.23160896 0.21766715
0.12141574 0.14095467 0.26096928 0.05796244 0.18873721 -0.1052369 0.007212637 0.3821577
0.3937253 -0.45871636 0.16225554 0.22255188 0.24176155 0.14113349 -0.41996968 0.18128845
-0.15146321 -0.59887797 -0.85102165 0.08892028 -0.38605407 0.2870278 0.2955981 -0.049829654
-0.7029641 0.1433065 0.0611718 0.2411708 0.17462668 0.3698535 0.062531374 0.15224874
-0.32459813 -0.091679536 0.2596214 0.21282142 0.17247978 -0.4397619 -0.0027710323 0.008382746
0.17396878 0.32445827 -0.2596299 -0.5274719 0.14556663 0.31963024 0.07762996 0.15232734
0.059963576 -0.31743678 -0.37316287 0.081769176 0.022346655 -0.32321432 -0.5558356 -0.077296466
0.11977066 -0.58653015 -0.16410741 0.23534824 -0.30990312 0.16175017 0.106785744 0.22191432
0.19678098 0.11384499 0.2790536 0.189023 -0.053564444 -0.27703673 0.30050042 -0.09025308
0.02530103 -0.14624111 0.2399224 0.18374772 0.19213404 0.18258736 -0.5120879 -0.1838842
-0.31729856 -0.04156607 -0.31642377 0.06985761 -0.46504045 0.28458384 0.22242321 -0.025961652
0.0066581597 0.2669697 -0.031323016 0.33161628 0.16053934 0.36377776 0.18663722 0.20436671
-0.11659828 -0.1572737 0.27132055 0.2045911 0.06784972 0.14769757 -0.3655224 0.18246874
-0.32699493 0.19640048 -0.49633893 -0.63365865 0.008374544 -0.039133675 -0.60198843 0.096366026
0.4174082 -0.26255742 0.34316257 -0.16848372 0.28635174 0.40791 0.3617411 -0.23190281
0.10755672 0.35923836 -0.005453628 0.2725148 -0.22156075 0.16707155 0.27033636 0.25043014
0.24092345 0.12729095 0.21642122 -0.5395312 0.12628374 -0.049244825 -0.27165732 0.5473723

fc3.bias f4 [4]
00000000: 49e7 113f cb1a db3e ce2b 0a3f 557c 173f
0.5699354 0.4279388 0.5397309 0.5917409
